Model: "sequential"
_________________________________________________________________
 Layer (type)                Output Shape              Param #   
=================================================================
 conv2d (Conv2D)             (None, 8, 8, 32)          1760      
                                                                 
 conv2d_1 (Conv2D)           (None, 8, 8, 32)          9248      
                                                                 
 conv2d_2 (Conv2D)           (None, 8, 8, 32)          9248      
                                                                 
 conv2d_3 (Conv2D)           (None, 8, 8, 32)          9248      
                                                                 
 conv2d_4 (Conv2D)           (None, 8, 8, 32)          9248      
                                                                 
 conv2d_5 (Conv2D)           (None, 8, 8, 32)          9248      
                                                                 
 flatten (Flatten)           (None, 2048)              0         
                                                                 
 dense (Dense)               (None, 64)                131136    
                                                                 
 dense_1 (Dense)             (None, 1)                 65        
                                                                 
=================================================================
Total params: 179,201
Trainable params: 179,201
Non-trainable params: 0
_________________________________________________________________
epoch,loss,val_loss,mae,val_mae
10,5519930.5,121902384.0,1709.696533203125,8240.9404296875
20,7851827.5,33632328.0,2059.36376953125,4236.75634765625
…
